Python/model.pkl (torch, 7553 bytes, 12 tensors)

MLP.0.weight f4 [5, 2]
000000 1a 06 32 bf 62 65 8f 3e 8d 25 1d bf f2 ca b0 3e
       -0.6954056 0.28007036 -0.6138542 0.34529835
000010 0c c3 cb be 06 4c 2c bf 76 1f d9 3e 58 1a 20 be
       -0.39797246 -0.673035 0.42406815 -0.1563505
000020 30 2e 0a 3e 30 90 d6 be
       0.13494182 -0.4190688

MLP.0.bias f4 [5]
000000 9e 15 e3 3e e2 13 eb 3e 66 09 a4 3e 60 51 29 3d
       0.4435243 0.45913607 0.3203842 0.04133737
000010 d0 0a 6b 3d
       0.05738336

MLP.1.weight f4 [10, 5]
000000 c4 a2 58 3e 5a 07 a1 3e 43 0b b6 be c0 82 70 3d
       0.2115584 0.3145092 -0.35555467 0.058718443
000010 54 7d d0 bd b8 ae dc 3e 74 ef 65 3e d4 47 79 be
       -0.101801544 0.4310205 0.22454625 -0.24343807
000020 54 47 d5 3e f2 ac 98 3e bd 21 e2 be 8a ff 28 be
       0.41655982 0.29819447 -0.44166365 -0.1650373
000030 28 a6 a6 be 23 a7 c6 be 80 c1 2a 3d 58 57 74 be
       -0.32548642 -0.3879939 0.041688442 -0.23861444
000040 68 88 25 bd c8 21 a2 3d 30 d2 99 3d b7 9c c3 be
       -0.04041329 0.079165995 0.07510793 -0.382055
000050 34 12 61 be d8 a6 e7 bd ac 9a 01 3e 00 01 0f 3b
       -0.219796 -0.1131112 0.12656659 0.0021820664
000060 31 0c e4 be 40 37 c7 3b da 34 5c be 40 40 fa bc
       -0.4454055 0.0060795844 -0.21504536 -0.030548215
000070 ec 15 93 3e ac 3f 69 3e 42 6f c9 be f0 8c b6 bc
       0.28727663 0.22778195 -0.39342695 -0.022284001
000080 34 3c 10 be 60 8f 19 3e b7 a5 da be 12 a9 d3 be
       -0.14085466 0.149961 -0.42704555 -0.41339928
000090 38 18 4d 3d aa 3f c7 be 8a f6 8c 3e f8 76 10 3e
       0.050071925 -0.3891576 0.27531844 0.14107883
0000a0 0c da 53 3e a8 ac f4 bd 30 08 ce 3d e0 9e 03 3c
       0.20688647 -0.11946994 0.100601554 0.008033484
0000b0 40 2e e3 3e 7d d3 a3 be 1e f0 ab 3e 60 56 a0 3d
       0.44371223 -0.3199729 0.33581632 0.07828975
0000c0 40 4a 02 be 84 d2 91 3e
       -0.12723637 0.28480923

MLP.1.bias f4 [10]
000000 52 2d 8b 3e 67 e9 65 be b8 80 70 be 70 11 a7 3e
       0.27183014 -0.22452317 -0.23486602 0.3263049
000010 70 07 e6 bc 34 19 fc bd ec 26 36 be a0 d0 99 3d
       -0.028079718 -0.123094946 -0.17788285 0.07510495
000020 06 ae c7 be 60 2d 1f bd
       -0.38999957 -0.038861632

MLP.2.weight f4 [15, 10]
000000 2d d3 00 be af 6a 85 be 1e 12 a9 bd 90 e8 e3 3d
       -0.12580557 -0.26057956 -0.08255409 0.11128342
000010 36 52 06 be 83 13 94 3e 26 24 3b 3e d7 ca 8b be
       -0.13117298 0.28921136 0.18275508 -0.27303192
000020 57 be 87 3e 01 1f 1d be 50 dd 28 be 05 78 39 be
       0.26512405 -0.15343858 -0.16490674 -0.1811219
000030 12 81 4e 3e 90 1e de 3c 9a c5 5b 3e 02 9f 46 3e
       0.20166424 0.027114183 0.21462098 0.19396594
000040 ae fe 61 3e e8 8e 04 3e da 89 56 3e 7c bc f7 bd
       0.22069809 0.1294514 0.20951024 -0.120964974
000050 8e 48 2c be 32 7c 6f 3e f0 27 c9 3c 92 67 08 3e
       -0.16824552 0.2338722 0.024555176 0.13320759
000060 c0 2d d4 3c b8 6b 55 be 14 a5 25 3e 44 70 2b 3e
       0.025900722 -0.20841873 0.16176254 0.16742045
000070 a6 8f 44 3e 40 38 9a 3d ae 6f 48 3e bf 2c 4e be
       0.19195423 0.0753026 0.19573852 -0.20134257
000080 0c 47 62 be e8 c5 11 3d 80 18 6b 3c 16 ee 5c 3e
       -0.22097415 0.03558913 0.014349103 0.21575198
000090 8b 76 9f be 5a 77 0b be a8 7d 17 3d 38 e1 f5 bd
       -0.3114513 -0.13619748 0.03698507 -0.12005848
0000a0 81 03 9b 3e aa 37 71 be b9 ab 8c be 3c bf 8d 3d
       0.3027611 -0.2355639 -0.27474764 0.06921241
0000b0 5a 5b 56 be fa 0a 60 3e f4 5d 65 be f0 6e d1 bd
       -0.20933285 0.21879187 -0.22399122 -0.10226238
0000c0 ab f2 92 be a5 07 7c be 19 15 04 be 28 04 de 3d
       -0.28700766 -0.24612291 -0.12898673 0.108406365
0000d0 42 17 0d 3e 60 b7 5d 3c ce 40 21 3e e6 1c 84 be
       0.13778403 0.01353249 0.15747377 -0.25803298
0000e0 74 b2 8d be bc d4 97 be 5d ce 88 be c6 ac e1 bd
       -0.2767521 -0.2965449 -0.26719943 -0.11019282
0000f0 a0 a3 73 3c 56 97 8a bd e9 82 75 be fb 8f 8c 3e
       0.014870554 -0.06767146 -0.2397572 0.27453598
000100 1f f0 1a be 4e da b9 bd 1f 63 7a be 78 37 69 be
       -0.15130661 -0.090748414 -0.24451874 -0.22775066
000110 e0 ce be 3d 8c 16 64 be 21 7d 43 be 60 3b d5 bd
       0.09316802 -0.22274226 -0.19090702 -0.104117155
000120 1a d4 46 be 00 2a 99 ba 30 20 07 3e c0 f0 7f 3c
       -0.19416848 -0.0011685491 0.13195872 0.015621364
000130 db 42 13 be 14 54 b2 3d 16 4d 58 3e 1d 8c 13 be
       -0.14380972 0.08707443 0.21123156 -0.14408918
000140 40 49 b7 3c 9c 92 39 3e 46 d0 c1 bd 88 b7 76 be
       0.022373796 0.18122333 -0.09463553 -0.24093449
000150 0c 13 0b be 38 76 30 3d ce 6c 5b 3e 48 64 9e 3d
       -0.13581485 0.043081492 0.21428224 0.07733971
000160 ec dd 89 bd 1e 1b a0 be 70 e7 fc 3c ba d8 13 be
       -0.06731781 -0.3127069 0.030872077 -0.14438143
000170 48 69 15 bd 3d 1f 87 3e ff 82 8f be 3b 7a 3e be
       -0.036477357 0.2639102 -0.2802963 -0.18601315
000180 d8 62 4d 3d a8 fa 00 3e a0 c9 68 bc 28 5e 17 3e
       0.050143093 0.12595618 -0.014208227 0.14782012
000190 24 9b 83 3d 8c b0 1d 3e f0 6e de bd 90 40 d5 bc
       0.06426075 0.15399379 -0.108610034 -0.026031762
0001a0 40 cc 5c 3d ca 64 6a 3e 80 e7 c5 bb b8 c1 28 bd
       0.053905725 0.2289001 -0.00603956 -0.04120037
0001b0 d8 5a 3c 3d 0f 96 17 be 99 0d 6b be 00 00 ef 3b
       0.045985073 -0.14803337 -0.22954406 0.007293701
0001c0 71 3a 87 be c6 c3 3b 3e 00 dc df 3b 78 30 50 3d
       -0.26411775 0.183364 0.006831646 0.050827473
0001d0 70 f9 45 be fc 71 db bd 26 eb 0b 3e 62 2b 24 3e
       -0.19333434 -0.107151 0.13663921 0.16032174
0001e0 d8 80 80 be fa 12 09 3e 50 7b 01 3e a3 a0 96 be
       -0.250983 0.13386145 0.12644696 -0.2941943
0001f0 7b bf 80 3e af 24 96 be 20 5a ce 3d 1e bc 99 be
       0.25146088 -0.29324862 0.10075784 -0.30026335
000200 05 0c 9c 3e cf 41 96 3e 6b a2 82 3e b0 83 91 bc
       0.3047792 0.29347083 0.2551454 -0.017762989
000210 d2 ea 50 3e 5a b2 b4 bd 0a 44 2b be f2 59 75 3e
       0.20402077 -0.0882308 -0.16725174 0.23960093
000220 80 d6 91 3c 00 e8 a4 bb 4c e5 b9 3d 6e e8 ff bd
       0.017802477 -0.0050325394 0.09076938 -0.12495504
000230 ae 09 1d be d0 7b 47 bd d0 a4 7b be 23 b6 3c be
       -0.15335724 -0.04870206 -0.2457459 -0.18428855
000240 60 74 f0 3d 7a fd 1c 3e d2 69 5d 3e b1 33 9b be
       0.11740947 0.15331069 0.21622398 -0.30312875
000250 32 4e 1c 3e a2 2c 55 be
       0.15264204 -0.20817807

MLP.2.bias f4 [15]
000000 70 de 15 3d c1 89 8a be ca 83 26 be 3b 76 87 3e
       0.036589086 -0.27058223 -0.16261211 0.2645739
000010 10 4f c1 3c c9 27 89 3e e0 02 67 3d fb 83 83 3e
       0.02359727 0.26788166 0.056399226 0.2568663
000020 a8 7f 16 3d 3a 3b 10 be a8 2f 67 be 00 7d bc 3a
       0.036742836 -0.14085093 -0.22576773 0.0014380515
000030 b8 27 fe 3d 1c cb c6 bd fe 2a 2a 3e
       0.124099195 -0.09706709 0.16617963

MLP.3.weight f4 [20, 15]
000000 3a 1e ad bd 69 38 73 be 8c 7d 4e 3e c0 0e 66 3c
       -0.08453031 -0.23751988 0.2016508 0.014041603
000010 30 2b 59 bd 44 5f 0e bd 0b f1 36 be 10 70 ec bd
       -0.053019702 -0.03475882 -0.17865388 -0.11544812
000020 50 2b 3c be 1a 7f 70 3e 31 7c 08 be 30 c4 43 be
       -0.18375897 0.23485985 -0.13328625 -0.19117808
000030 3a 14 7b 3e 10 e8 83 be 50 36 c2 bc c0 22 75 3d
       0.24519435 -0.25762987 -0.023707539 0.059847593
000040 f2 d0 50 3e 6c 99 9e bd 08 6b 0b bd 7c 15 44 3e
       0.20392206 -0.07744107 -0.03403762 0.1914882
000050 a4 99 14 3e 70 2e 6c 3d 54 bb 3e be 48 55 33 bd
       0.14511734 0.057661474 -0.18626148 -0.043782502
000060 ae 55 2d be 5e a2 1c be e4 77 8f bd 25 86 6f be
       -0.16927215 -0.15296313 -0.07005289 -0.23391016
000070 b0 ed c6 3d 00 e9 28 3c f4 ba e8 3d 08 c1 01 3e
       0.09713304 0.010309458 0.113637835 0.12671292
000080 81 ff 82 3e eb 49 1a be c4 0f 27 bd 38 8d 8a 3d
       0.2558556 -0.1506726 -0.04078652 0.067652166
000090 a0 59 f2 3d 40 dc 46 3e 79 16 6f be 99 f9 67 be
       0.11833501 0.19419956 -0.23348416 -0.22653808
0000a0 b8 93 20 3e 70 2e be bc bc 7a 8f 3d d5 33 76 be
       0.1568135 -0.023215503 0.070058316 -0.2404321
0000b0 98 38 ea 3d bc ae 73 3e 70 b6 f6 3d 26 c0 56 3e
       0.11436576 0.23797125 0.12046516 0.20971736
0000c0 54 fc 47 be 02 f3 54 be 64 1c 1e bd 20 e9 95 bc
       -0.1952985 -0.20795825 -0.038601294 -0.01829964
0000d0 e4 bd af 3d 14 ed 88 bd 84 9a 16 be 41 dc 65 be
       0.08581141 -0.06685844 -0.1470738 -0.22447301
0000e0 10 c9 a8 bc 50 a8 af 3c a0 c7 8c 3c fc f9 22 3e
       -0.020603687 0.021442562 0.017185032 0.15915674
0000f0 3c 90 92 bd f3 db 68 be 06 e6 5d be fc d1 e9 3d
       -0.07156417 -0.22740154 -0.21669778 0.114170045
000100 2f 40 7f be e9 c1 50 be 58 bd da bc 60 8a 5d 3c
       -0.24926828 -0.20386471 -0.026701614 0.013521761
000110 f4 84 5a be e8 26 39 3e 44 70 a1 bd 2c 0d dc 3d
       -0.2133978 0.18081248 -0.07882741 0.107447
000120 18 aa 70 bd 71 6d 60 be b0 d6 f9 3c b0 4e 03 bd
       -0.058755964 -0.21916749 0.030497879 -0.032057464
000130 80 41 1d 3d e4 4e 15 be c7 82 10 be 64 6a 6b 3e
       0.038392544 -0.14580876 -0.14112388 0.22989804
000140 74 2b 12 3e 25 24 51 be 20 8d 09 bd 84 77 7f bd
       0.14274389 -0.20423944 -0.033581853 -0.06236984
000150 4c a4 81 be 72 88 38 3e 36 83 49 3e 30 35 4e bd
       -0.2532066 0.180208 0.19678959 -0.050343692
000160 d6 78 46 3e a0 cd c2 3d 74 d4 e7 3d 0b 63 76 be
       0.19382033 0.09511876 0.11319819 -0.2406122
000170 c0 a7 71 bd 9c d3 59 be f0 d8 60 3e 42 e9 83 be
       -0.05899787 -0.21272129 0.21957755 -0.257639
000180 b8 8f 6c 3d 74 aa 70 3e fc 07 00 3e 68 19 77 bd
       0.05775425 0.23502523 0.12503046 -0.060326964
000190 ca ba 4d 3e 7c c2 4f 3e 2e f1 31 3e 88 a6 50 3e
       0.20090786 0.20289034 0.17377159 0.20376027
0001a0 de cb 6e 3e 0e fa 30 3e 70 bb 14 3d dc de d3 bd
       0.23319957 0.17282888 0.036311567 -0.103452414
0001b0 50 04 66 bc 28 4b e4 bd 8e 8d 49 be 70 fd 94 3d
       -0.014039114 -0.111471474 -0.19682905 0.07274902
0001c0 f0 10 38 3e 20 03 ed 3c 08 c3 10 3e 80 d7 67 3c
       0.17975211 0.028932154 0.14136899 0.0141505
0001d0 94 43 15 be ac b6 e6 3d 84 b6 af 3d 33 83 83 3e
       -0.1457656 0.11265311 0.08579734 0.25686035
0001e0 e2 3e 1f 3e 6c 5f 5f 3e d8 9d 38 be 4c ac 1f 3e
       0.15551332 0.21813744 -0.18028963 0.1559307
0001f0 ff 2d 02 be a0 b6 f6 3c 52 b8 38 3e 3c 4a 5d 3e
       -0.12712859 0.03011638 0.18039063 0.2161035
000200 da 0b fc bd a3 6c 72 be fb 80 3b be e4 e9 83 be
       -0.12306948 -0.23674254 -0.18310921 -0.25764382
000210 98 5d be 3d 84 c0 64 3e ee 06 0a be f4 b8 9f bd
       0.09295195 0.22339064 -0.13479206 -0.07798949
000220 d6 4f a7 bd 0a 7f 62 3e b8 9a 2e bd 48 9f 36 3e
       -0.08169524 0.22118774 -0.04262802 0.17834198
000230 de 05 f1 bd 78 d2 8b 3d 00 fa f3 bb 48 b7 ba bd
       -0.11768697 0.06827253 -0.007445574 -0.091169894
000240 40 50 1d 3d 80 ca 81 be 14 48 72 bd 82 b3 4c be
       0.03840661 -0.25349808 -0.05915077 -0.19990352
000250 d0 3e 77 3d fe f7 cd bd 7c c4 58 3e 7f 8b 60 be
       0.060362637 -0.100570664 0.21168703 -0.21928214
000260 90 c2 83 be 74 ec 61 bd 8a 3c 4e be d6 2d 7f 3e
       -0.25734377 -0.05515714 -0.20140281 0.24919829
000270 24 e0 72 3e 35 0d 59 be 6b c3 63 be 64 0f 0b bd
       0.23718315 -0.21196444 -0.22242515 -0.033950225
000280 76 fa 12 be 78 6b a0 bd 98 ad b2 bd f4 43 45 bd
       -0.14353356 -0.07832998 -0.08724517 -0.04816051
000290 48 f2 f2 3d a8 eb 6b 3e fd a5 57 be 3b 22 3f be
       0.11862618 0.23039114 -0.21059413 -0.18665402
0002a0 d2 58 65 3e 54 33 30 3e 4c e6 50 be 24 71 bc bd
       0.22397164 0.1720708 -0.20400351 -0.09201267
0002b0 c8 d3 2c 3e 0e 30 7b 3e 70 70 53 3d 85 26 2b be
       0.16877663 0.2453005 0.0516209 -0.16713913
0002c0 e0 51 9d bc 88 dd 51 3e 94 35 e2 3d 28 f1 f4 bc
       -0.01920408 0.20494664 0.110453755 -0.029900149
0002d0 fa e1 9a bd 36 18 6a be 00 5c 8b 39 d0 a6 5a 3e
       -0.07562633 -0.22860798 0.0002658069 0.21352696
0002e0 1a a8 5f be e0 6b 55 3c dc a1 93 bd e2 c0 46 3e
       -0.2184147 0.013026208 -0.072086066 0.19409516
0002f0 86 83 52 be 14 7b ac 3d 20 ea 54 be 1c 4b 2a be
       -0.20557985 0.08421913 -0.20792437 -0.16630214
000300 e8 9e a4 3d 02 0c 96 bd 67 98 63 be 4e 06 68 be
       0.080381215 -0.07326509 -0.22226106 -0.22658655
000310 ae de 6d 3e 36 7d 12 be c0 0c 6d bc 66 c9 31 3e
       0.23229477 -0.14305577 -0.014468372 0.17361984
000320 86 28 f6 bd 8c c7 d4 3d b8 22 76 3d f8 81 39 bd
       -0.12019448 0.10389623 0.060091704 -0.045289963
000330 60 4b 85 3d a9 7a 27 be 00 08 f8 3d 7e da 7a be
       0.06508517 -0.16355385 0.12110901 -0.2449741
000340 c0 fb a4 3b 1c 1c 3d 3e a8 09 9b bd 9e 7a 7e 3e
       0.0050348938 0.18467754 -0.07570201 0.24851462
000350 da 1f 32 3e f8 3e 8b 3d f0 2a d9 3d 00 a5 da 3c
       0.17394963 0.0679912 0.10603893 0.026690006
000360 e9 56 73 be f4 45 2f 3e 60 9b d8 bc 3b 65 78 be
       -0.23763622 0.17116529 -0.026441276 -0.24257366
000370 e0 35 6d 3c 14 d6 b8 3d 1a 7f 8c bd fe 52 40 be
       0.014478177 0.09025207 -0.0686018 -0.18781659
000380 fa 80 2d be 93 c7 82 be 68 88 cb 3d 94 de 4b be
       -0.16943732 -0.25542888 0.09938127 -0.19909126
000390 12 b7 36 3e 04 5a 8e 3d 69 a3 22 be 2c de 65 bd
       0.17843273 0.06950763 -0.15882649 -0.056120083
0003a0 d8 27 c9 bc 34 2a aa bd bb 54 7e be d0 ce 50 be
       -0.024555132 -0.08308831 -0.2483701 -0.20391393
0003b0 76 9f 80 bd 58 74 61 3e b7 43 20 be 74 9d 37 3e
       -0.06280415 0.22017038 -0.15650831 0.17931157
0003c0 9e 02 24 be 22 7b 2a be 6f 3e 0a be fc ca e0 bd
       -0.16016623 -0.16648534 -0.13500379 -0.10976216
0003d0 f8 e5 af bd f0 dd 52 bd 44 15 3f 3e ee f4 15 3e
       -0.08588785 -0.051481187 0.18660456 0.14644215
0003e0 c8 43 48 bd 44 99 90 3d 53 15 04 be 3c b9 2a bd
       -0.048892766 0.07060483 -0.1289876 -0.04168056
0003f0 06 a2 f0 bd a3 d6 82 be 3a 7f 7e 3e 3a 5a 2e be
       -0.117496535 -0.2555438 0.2485322 -0.17026606

MLP.3.bias f4 [20]
000000 5a b5 7c be 76 67 01 3e 14 b6 31 be c2 d0 c2 bd
       -0.24678555 0.12637123 -0.17354614 -0.09512474
000010 00 fd 4f bc 64 2f 25 bd 68 3e c8 bc ad 8a 59 be
       -0.012694597 -0.0403284 -0.02444382 -0.21244307
000020 0a ad 92 bd b0 43 8f 3d ca e0 d6 bd 04 5e f7 3d
       -0.07161911 0.06995332 -0.10492094 0.12078479
000030 a6 3d 26 be 00 35 88 3a 18 bc 53 be ba a4 68 be
       -0.16234455 0.0010391772 -0.20677221 -0.22719088
000040 de 9e 3e 3e b0 22 46 bd 70 e8 4a bc 6f 17 83 3e
       0.1861529 -0.048372924 -0.012384519 0.25603816

MLP.4.weight f4 [15, 20]
000000 fa 67 0c be c0 ec 53 3e 22 ce 26 be d8 2f 28 3d
       -0.13711539 0.20695782 -0.16289571 0.041061252
000010 f0 cb e2 bd 3b 92 42 be 24 d8 e4 3d c4 65 05 bd
       -0.11074054 -0.19001095 0.11174038 -0.032567754
000020 6f b2 45 be 95 59 61 be 20 f2 fd 3b 6e e9 51 be
       -0.19306348 -0.22006829 0.007749811 -0.20499203
000030 00 28 09 3b 78 c5 62 3d ac 6c 53 bd 08 36 b8 bd
       0.0020928383 0.055364102 -0.05161731 -0.08994681
000040 73 ae 5a be 18 d4 17 bd a8 a6 f1 3d 98 62 38 3d
       -0.2135561 -0.037067503 0.11799365 0.0450159
000050 e8 a0 37 bd a8 a4 6a 3d e0 d5 28 be 30 4e 97 bd
       -0.044831187 0.057285935 -0.16487837 -0.0738796
000060 a0 a1 2d 3e d0 42 4a 3c 90 32 37 3d 7c b9 52 3e
       0.16956186 0.012345031 0.044725955 0.20578569
000070 da eb a8 bd b8 4d d0 bd b4 ea 0b be 27 d1 0f be
       -0.0824811 -0.10171074 -0.13663751 -0.14044629
000080 92 1c 49 3e 2a a2 ba bd 9a e9 29 be b4 dd 4c be
       0.19639805 -0.091129616 -0.16593018 -0.20006448
000090 d9 3a 49 be 68 7e 52 be 60 f4 60 3c 8c 79 e7 bd
       -0.19651355 -0.20556033 0.013730139 -0.1130248
0000a0 50 be ef 3d 58 e1 c2 bd a0 20 05 3d 48 6e 0f 3d
       0.11706221 -0.09515637 0.032501817 0.03501728
0000b0 64 16 4a bd e2 3c 9e bd 1a 68 0d be d8 3c a0 3d
       -0.04933776 -0.07726456 -0.13809243 0.07824105
0000c0 88 8c 15 bd 38 53 95 bd a8 2d cd 3d 60 d7 67 3d
       -0.036510974 -0.07291263 0.10018474 0.056601882
0000d0 30 d5 d1 3d 9e a8 55 be 70 b0 84 3c 1c 35 38 bd
       0.102457404 -0.20865104 0.016197413 -0.044972524
0000e0 80 b7 2a 3e 80 78 f1 bc f1 2c 1f be 48 2c d6 3d
       0.16671562 -0.029476404 -0.15544488 0.10457665
0000f0 56 b7 04 3e 00 b2 b8 b9 e6 07 53 3e ac db b2 3d
       0.12960562 -0.00035227835 0.20608482 0.08733305
000100 4b 69 38 be 80 96 aa 3a f6 90 3d 3e e0 34 ec 3c
       -0.18008916 0.0013014823 0.1851233 0.028833807
000110 fe 48 1d be b8 67 ca bd cc 75 d6 3d 18 0b 2d be
       -0.15359876 -0.09883064 0.10471687 -0.16898763
000120 64 b5 f3 3d 0c 51 c8 3d 2c c1 4a 3e f1 e0 da bd
       0.11899832 0.097810835 0.19800252 -0.106874354
000130 79 af fb bd 38 92 4a bd ca 59 1f be 37 28 52 be
       -0.12289328 -0.04945585 -0.15561596 -0.20523153
000140 8b 65 14 be a2 08 31 be 54 07 3a bd c4 77 a6 3d
       -0.1449186 -0.1728845 -0.045417145 0.08128312
000150 9c 41 42 3e a8 e2 cc 3c 94 ce 05 be 20 e0 de bb
       0.1897034 0.025010422 -0.13067085 -0.00680162
000160 b4 c8 24 bd be f7 08 be 5c 99 22 3e 20 03 c0 3d
       -0.040230468 -0.13375756 0.15878814 0.09375596
000170 f2 c2 bf bd 8e f3 04 3e 88 36 00 3e 54 ac 18 3e
       -0.09363355 0.12983534 0.12520802 0.14909488
000180 2c 18 5c 3e 60 72 d5 3b e7 8a 0a be 20 18 f6 bb
       0.21493596 0.0065138787 -0.1352955 -0.0075102
000190 60 e7 27 be fd 07 5e be b4 17 33 3e e8 1e da bd
       -0.16396856 -0.21682735 0.17489511 -0.10650426
0001a0 90 b0 bd bc b8 76 3d bd 00 28 0c bb 54 aa 2a 3e
       -0.02315548 -0.046255797 -0.0021386147 0.16666538
0001b0 e8 7d 2d be fc b5 66 bd 2d 62 ed bd 20 2c 60 3c
       -0.1694256 -0.056325898 -0.11590991 0.013682395
0001c0 e8 18 59 3e b0 4b f7 3d e6 2c 44 be 54 86 da 3d
       0.21200907 0.12074983 -0.19157752 0.10670152
0001d0 b8 53 a3 bd 48 3a 5e 3d 22 37 00 3e 64 8b 2b bd
       -0.079749525 0.0542548 0.12521031 -0.04188098
0001e0 f9 5a e2 bd c8 2d 3a bd 54 39 36 bd df b9 01 be
       -0.11052508 -0.045453817 -0.044488266 -0.1266856
0001f0 4a db 8b bd 58 c9 a9 3d 10 67 29 bc de ae 9e bd
       -0.068289354 0.082903564 -0.010339513 -0.07748197
000200 09 f2 29 be 1e ef 01 3e 44 76 31 3e 40 53 d5 3b
       -0.16596235 0.12688872 0.17330271 0.0065101683
000210 10 a5 a6 bd 90 63 d0 3c 10 c4 56 be 9c e1 fe bd
       -0.08136952 0.0254381 -0.2097323 -0.12445375
000220 1e cd f5 bd ce c3 1b be a4 a5 b2 bd a0 47 02 3d
       -0.120020136 -0.15211412 -0.08723 0.03180659
000230 40 c8 20 bd c0 83 32 bc 10 0e 39 bd 8c 87 b9 3d
       -0.039253473 -0.010895669 -0.045179427 0.09059057
000240 84 95 79 bd b2 12 60 be 3c aa 2b be 2e 0f 09 3e
       -0.060933605 -0.21882132 -0.16764158 0.13384697
000250 dc 91 5a 3e 4b ca 09 be f0 63 4b 3d 35 46 d2 bd
       0.21344703 -0.13456075 0.049655855 -0.10267297
000260 a2 19 d7 bd 6a 2c 3e be 68 3b 31 3d b8 59 3b 3e
       -0.10502936 -0.1857163 0.043269545 0.18295944
000270 88 ef f7 3d 84 ec 91 3d e9 e6 3f be 00 54 e5 bb
       0.12106234 0.0712519 -0.18740429 -0.006998539
000280 cc 90 1a 3e c8 67 82 3d c8 ae 57 bd 90 2a 05 3c
       0.15094298 0.06367451 -0.05265692 0.0081278235
000290 38 6c 0f 3d d3 ae 60 be 58 1d c6 bd 30 49 27 3e
       0.035015315 -0.2194169 -0.096735656 0.16336513
0002a0 80 58 f2 3d 30 f8 5f 3d b4 46 9a bd 38 33 4c 3e
       0.11833286 0.05468005 -0.07533017 0.19941413
0002b0 45 da d0 bd 78 f3 c8 bd 00 39 21 be 74 ac 45 bd
       -0.101978816 -0.09812063 -0.157444 -0.048260167
0002c0 f8 00 18 3d 10 c5 4d bc 28 1f 28 3d 5a 69 05 be
       0.0371103 -0.01255919 0.041045338 -0.1302847
0002d0 9f 39 34 be be 84 01 be 06 9a c1 bd ba 28 c9 bd
       -0.17600106 -0.12648293 -0.09453206 -0.09822221
0002e0 da 66 1d 3e 10 56 c6 3d 64 c2 d2 3d 94 41 a6 3d
       0.15371266 0.09684384 0.10290983 0.08117977
0002f0 c6 a8 86 bd 08 d9 14 be 6d d2 ec bd 14 c0 0c bd
       -0.0657516 -0.14535916 -0.11563573 -0.034362867
000300 7c 97 81 3d 20 a1 f6 bb 63 42 50 be d0 0e 1b bd
       0.063277215 -0.007526532 -0.20337825 -0.037855923
000310 d2 c8 01 3e 9c 5e 04 3e 10 44 59 bd a4 0d d5 3d
       0.12674263 0.12926716 -0.053043425 0.10402992
000320 8c ef 21 3e 4e 64 2a 3e e4 c3 d8 3d d6 49 38 3e
       0.15814036 0.16639826 0.10584238 0.17996916
000330 a4 05 5c 3e e8 7d 74 3d 7c 76 02 3e cc 24 a3 3d
       0.21486527 0.059690386 0.1274051 0.07966003
000340 43 71 3e be 25 8d 52 be ba eb 26 3e 52 d5 45 3e
       -0.18597893 -0.20561655 0.1630086 0.19319656
000350 74 be e3 bd 88 84 d0 bd 9e ac 53 be 0c 3f ac 3d
       -0.111203104 -0.10181528 -0.20671317 0.08410463
000360 a0 4e da 3d 4e 1e 2a be 2c 40 e2 3d 7e 12 14 3e
       0.10659528 -0.16613123 0.11047396 0.14460179
000370 c0 70 5b 3e 2e 6a 2d 3e 04 fe 1a bd c0 4a 3d bd
       0.2142973 0.16935036 -0.037839904 -0.046213865
000380 62 64 fb bd 1d e5 61 be 48 74 5d 3e 16 6b 12 3e
       -0.12275006 -0.22060056 0.21626389 0.14298663
000390 b0 dc df 3c dc d2 dc bd b0 13 56 3d e6 31 47 be
       0.027326912 -0.10782406 0.05226487 -0.19452628
0003a0 6f d7 1e be 28 22 34 3d f0 a5 51 bd 22 4f aa bd
       -0.15511869 0.043977886 -0.05118364 -0.08315875
0003b0 a0 be c1 bd ac 25 b0 3d d0 93 5e 3c 02 17 09 3e
       -0.09460187 0.08600935 0.013585046 0.13387683
0003c0 2a cb 0d 3e 36 cf af bd c4 78 55 3e 9d 68 cb bd
       0.13847032 -0.08584444 0.2084685 -0.09932063
0003d0 54 0a 57 be 2e b0 39 be 90 e0 9c 3d 20 51 c8 3b
       -0.21000034 -0.18133613 0.076600194 0.0061131865
0003e0 20 1c 8d 3b 8c 7d 06 bd 70 20 48 3e 5e 09 27 3e
       0.0043063313 -0.032834575 0.19543624 0.16312167
0003f0 10 c7 a5 bd 86 19 5f be 34 09 14 be 55 32 2f be
       -0.08094609 -0.2178708 -0.14456636 -0.17109044

MLP.4.bias f4 [15]
000000 96 68 4b 3e 20 4d 92 bc 80 45 9e 3a b4 c9 bc 3d
       0.19864115 -0.017859042 0.0012075156 0.09218159
000010 ee 1f 16 3e 18 2b 89 bc 30 52 4f bc ea 02 31 3e
       0.14660618 -0.016744182 -0.012653872 0.17286268
000020 90 ed 4b 3d 50 0d 40 bc d8 0c c3 3d 2c 41 8a 3d
       0.049787104 -0.011721924 0.09523934 0.06750712
000030 04 97 90 bd b0 5a c9 3c 74 82 0a be
       -0.07060054 0.024579376 -0.13526326

MLP.5.weight f4 [10, 15]
000000 a0 60 69 3e c4 1d 39 bd c0 33 6c 3d e7 22 68 be
       0.22790766 -0.045194402 0.05766654 -0.22669564
000010 a8 41 66 3d 24 9a 6c bd 5c 13 65 bd b8 dd d1 bd
       0.05621496 -0.057764187 -0.055926666 -0.102473676
000020 a0 3d b4 3d 14 c1 a1 3d 04 63 99 bd 1e 99 4f be
       0.088008165 0.07898155 -0.07489589 -0.20273253
000030 78 53 1a be be ad c6 bd ec 0e ce 3d 76 d2 7e 3e
       -0.15070903 -0.097011074 0.1006144 0.24884972
000040 86 bf 2a be 0e 13 21 3e 36 57 ba bd 50 3b 9a bc
       -0.16674623 0.15729925 -0.090986654 -0.01882711
000050 ae 9b 52 be ab 1c 76 be 44 3a 6b 3e 40 d0 ef 3c
       -0.205672 -0.24034373 0.22971445 0.029274106
000060 00 70 ea 3d 60 f2 6c 3e 74 ce 6e be e0 80 24 3c
       0.114471436 0.23139334 -0.23320943 0.010040492
000070 0e cb f5 bd 0e c7 18 be b3 06 20 be 51 e6 28 be
       -0.1200162 -0.14919683 -0.15627556 -0.16494109
000080 04 ae aa 3d 4e 29 63 be 1c 5a 28 bd b8 54 6c be
       0.08333972 -0.22183725 -0.04110156 -0.23079193
000090 bc a4 1c bd bc c0 15 3e 64 df 65 be ec f0 52 3e
       -0.03824304 0.14624304 -0.22448498 0.20599717
0000a0 9a 82 4e 3e 54 46 2b be dc ee be bd c0 5e 74 3e
       0.20167008 -0.16726047 -0.093229026 0.2386427
0000b0 f0 e3 50 3e 5c 30 0f 3e 22 ad 9c bd 90 5d c4 bd
       0.20399451 0.13983291 -0.0765021 -0.09588158
0000c0 74 36 59 3e 90 97 6b 3e c0 20 7b 3d f0 4e d0 3c
       0.21212178 0.23007035 0.06131053 0.025428265
0000d0 aa a4 42 be 4e 17 3f be ea f6 91 bd e8 b9 23 bd
       -0.19008127 -0.18661234 -0.07127173 -0.039972216
0000e0 74 d0 30 3e 02 2a 42 3e c0 6e 85 bb c6 a2 85 bd
       0.17267019 0.18961337 -0.0040720403 -0.06525187
0000f0 4c db 65 3e 7a 40 5f be 07 38 6e be c4 97 81 3d
       0.22446936 -0.2180194 -0.2326356 0.06327775
000100 28 1c 4a 3d 09 78 32 be 33 01 62 be aa ce 62 3e
       0.04934326 -0.17428602 -0.2207077 0.22149149
000110 34 95 5c be 21 20 80 3e 22 89 99 bd 63 ab 3e be
       -0.21541291 0.25024512 -0.07496859 -0.18620066
000120 50 77 3a 3d 62 06 38 3e b8 dc 36 3d b0 27 f5 bc
       0.04552394 0.17971185 0.044644088 -0.029926151
000130 c8 7e 2c 3e ea 18 44 be 52 e7 5f 3e e9 b5 05 be
       0.16845238 -0.19150129 0.21865585 -0.13057674
000140 59 55 5e be 80 9a f3 bb 54 8e 81 3d 68 0c 51 3d
       -0.21712245 -0.0074341893 0.06325975 0.051037222
000150 a6 4c 35 be b2 22 76 be 64 4c 70 3e 8e 1d 54 3e
       -0.1770502 -0.24036673 0.2346664 0.20714399
000160 92 af 82 be 04 89 03 3e 38 0f 18 be a0 9c 3c 3c
       -0.25524575 0.12845236 -0.14849555 0.011511952
000170 28 39 0a be c0 d3 06 3c 4b c5 4b be 00 8f b6 3b
       -0.13498366 0.008229196 -0.1989948 0.005571246
000180 a8 e9 47 be cc 41 dc 3d 0c 3f 9a bd 60 51 43 3c
       -0.19522727 0.10754737 -0.075315565 0.011921257
000190 c0 99 35 3d ac 66 8f bd 74 48 19 bd cc 98 5c 3e
       0.04433608 -0.07002005 -0.037422612 0.21542662
0001a0 36 72 f0 bd 02 f8 81 be 9a 73 2c be 52 d1 44 3e
       -0.11740534 -0.25384527 -0.16840973 0.19220474
0001b0 c0 d4 60 3c f0 fe 0b 3d 96 d0 85 bd be 70 08 3e
       0.013722599 0.034178674 -0.06533925 0.13324258
0001c0 a2 71 42 be 04 c5 0b 3e 7a 16 73 be 58 33 45 bd
       -0.1898866 0.13649374 -0.23739043 -0.04814467
0001d0 10 23 15 be b4 12 6b be 22 d9 41 3e 02 d9 1c 3e
       -0.14564157 -0.22956353 0.18930486 0.15317157
0001e0 78 00 9e bd 1f c2 6f be a0 d2 94 3d 44 69 8d 3d
       -0.07714933 -0.23413895 0.07266736 0.069048434
0001f0 9e 74 23 3e 3a f6 26 be b2 87 66 3e 0b 7c 80 3e
       0.15962455 -0.16304865 0.22512701 0.25094637
000200 0a ec 29 3e 58 b7 e3 3d dc 28 12 3e ca 69 59 be
       0.16593948 0.111189544 0.14273399 -0.21231762
000210 38 12 65 3e f4 e8 3d bd 9a 3e 0c be e2 ed 80 bd
       0.22370231 -0.04636474 -0.13695756 -0.062953725
000220 06 7c 9f bd 2b 1e 7c be 40 7b 16 be bc 0b 56 3e
       -0.077873275 -0.24620883 -0.14695454 0.20902914
000230 7c d1 1b 3e 64 16 22 be de 77 36 3e 78 63 5b 3d
       0.1521663 -0.15828854 0.17819163 0.053561658
000240 b4 0c 55 bd c0 f4 31 be d0 5f 3f be 80 cd 31 be
       -0.052014068 -0.17378521 -0.18688893 -0.17363548
000250 36 b3 1e 3e a0 ac 46 3c
       0.15498051 0.012126118

MLP.5.bias f4 [10]
000000 af 75 50 be bf 39 29 be ec 24 8b 3d 18 a4 36 3d
       -0.20357393 -0.16525935 0.06794152 0.044590086
000010 70 bf 3b bd f0 9d 23 bc 68 0d 84 be 00 ed ce 3a
       -0.045836866 -0.009986386 -0.25791478 0.0015787184
000020 f0 1e 7f 3d 40 16 c2 bc
       0.062285364 -0.02369225
